best_gnn_model.pth (torch, 148948 bytes, 8 tensors)

encoder.0.weight f4 [128, 21]
0	0xbde4db11	-0.11174596
1	0xbdec2382	-0.1153021
2	0xbd6294a7	-0.055317547
3	0xbe35455b	-0.17702238
4	0xbbf36e2a	-0.007428904
5	0xbe04bde6	-0.12963066
6	0x3e723475	0.23652823
7	0x3e567cb3	0.20946006
8	0x3d9d253a	0.07673116
9	0x3d0d7cb9	0.034542773
10	0xbd1e2480	-0.038609028
11	0x3bb97190	0.0056592897
12	0xbe03a56f	-0.12856077
13	0xbd7a1f08	-0.06106475
14	0xbdc03167	-0.09384423
15	0xbced9d26	-0.029005598
16	0xbe32d02b	-0.17462222
17	0x3d164c85	0.03669407
18	0x3e4c316f	0.19940732
19	0xbdb9b1c5	-0.0906711
20	0x3c02d00a	0.007984171
21	0xbd9c76e3	-0.07639863
22	0xbd599e78	-0.053129643
23	0xbd1701cc	-0.036866948
24	0x3e0d5379	0.13801374
25	0xbc82905b	-0.015937975
26	0xbe4029a8	-0.1876589
27	0xbe04b1bf	-0.1295843
28	0x3d7b9d2c	0.061429188
29	0x3c978e6e	0.018500533
30	0xbd3fe2b5	-0.046847064
31	0xbd978123	-0.07397678
32	0xbe09ba1b	-0.134499
33	0xbe039fcc	-0.12853926
34	0xbe242187	-0.16028415
35	0xbc62bd4c	-0.013839077
36	0x3c2710f4	0.010196913
37	0x3df9b2fc	0.12192342
38	0xbdca894d	-0.09889469
39	0xbd10b086	-0.035324596
40	0x3dc4a36a	0.09601481
41	0x3d39f405	0.04539873
42	0xbc327172	-0.010891305
43	0x3c23130c	0.009953272
44	0xbcbe1715	-0.023204366
45	0xbe67523a	-0.2258996
46	0xbd472f7f	-0.04862928
47	0xbda7ca4e	-0.081928834
48	0x3e21ff9f	0.15820168
49	0x3e0f4850	0.13992429
50	0x3c14672a	0.009057799
51	0x3e2012bd	0.15632148
52	0xbe2d8015	-0.1694339
53	0x3e1f2a51	0.15543486
54	0x3e18bc83	0.14915662
55	0xbd85eb50	-0.06539023
56	0xbe5661ff	-0.2093582
57	0xbddf87ae	-0.10914551
58	0xbdec58f8	-0.11540407
59	0xbcfaef8d	-0.030631805
60	0xbe723dc5	-0.23656376
61	0xbc883a24	-0.016629286
62	0xbe0003f3	-0.12501507
63	0xbe11a911	-0.1422465
64	0xbde0149d	-0.10941432
65	0xbdd19002	-0.102325454
66	0xbe9447ea	-0.28961116
67	0xbde61059	-0.11233587
68	0xbd14a64e	-0.036291413
69	0x3d6593fd	0.056049336
70	0x3e4e8539	0.20168008
71	0xbe62cc96	-0.22148356
72	0x3b99d5cb	0.0046946756
73	0xbdf509b8	-0.11964744
74	0xbe6687fc	-0.22512811
75	0xbdc5b298	-0.09653205
76	0xbdf97d71	-0.12182129
77	0xbe7a36a5	-0.24434908
78	0xbe94ea32	-0.29084927
79	0xbe122b23	-0.14274268
80	0x3dfbbee9	0.122922726
81	0x3d1f73f1	0.03892893
82	0xbda0a2fb	-0.07843586
83	0xbe4e51d2	-0.201484
84	0xbe896b6b	-0.26839766
85	0xbd772dfb	-0.060346585
86	0xbd8e16d5	-0.069379486
87	0x3cfbe27e	0.030747648
88	0x3e0fa31a	0.14027062
89	0xbd81b9b3	-0.063342474
90	0x3d4c71ae	0.0499131
91	0xbd889d4b	-0.06670626
92	0xbe20c9d9	-0.15701999
93	0xbd57cd55	-0.052686054
94	0xbd52d739	-0.051474784
95	0x3da9a7ab	0.08283933
96	0x3dad2f34	0.08456269
97	0xbd0cb361	-0.034350757
98	0xbe06aa9d	-0.13151021
99	0xbc950ae0	-0.018193662
100	0xbe034c9e	-0.12822196
101	0x3e5ca8b2	0.21548727
102	0xbe4fd899	-0.20297469
103	0x3e3301bd	0.17481132
104	0xbe1c2fee	-0.15252659
105	0xbe5a4df0	-0.21318793
106	0xbcfffd44	-0.031248696
107	0x3bd57aff	0.0065149064
108	0x3dd46826	0.10371427
109	0x3e024288	0.12720692
110	0xbdab2873	-0.083573245
111	0xbdbf95a6	-0.09354715
112	0xbc9d6782	-0.019214395
113	0xbdf9453f	-0.12171411
114	0xbd6dd647	-0.05806568
115	0xbe861df1	-0.26194718
116	0xbe8015a9	-0.25016525
117	0x3dac1afb	0.084035836
118	0xbe3b3184	-0.18280607
119	0x3dce7505	0.100809135
120	0xbd2a34ee	-0.041554384
121	0xbb0b935d	-0.0021297552
122	0x3e0259b1	0.12729527
123	0xbe3fbd4a	-0.18724552
124	0xbdb8ab87	-0.09017091
125	0xbd057431	-0.032581512
126	0xbc3f113d	-0.011661825
127	0xbe97c92c	-0.2964567
128	0xbc3f3d28	-0.011672296
129	0xbe5ca9eb	-0.21549194
130	0xbd647801	-0.055778507
131	0x3d6cfd4b	0.057858746
132	0xbdde4a12	-0.108539715
133	0xbdbb12c9	-0.09134442
134	0xbdd940bd	-0.10608051
135	0x3dc32abe	0.09529637
136	0x3d221cf9	0.03957841
137	0xbd596b07	-0.053080585
138	0xbe5f5d59	-0.21812953
139	0xbe4fcfcd	-0.20294113
140	0x3dac1f8e	0.08404456
141	0x3d8fbf63	0.07018926
142	0x3d2ba8f6	0.04190918
143	0xbe85150a	-0.25992614
144	0x3daa4e61	0.08315731
145	0xbdd79e62	-0.10528256
146	0x3d916a66	0.07100372
147	0x3e653bc7	0.22386084
148	0xbd1fec47	-0.03904369
149	0x3ce17ef7	0.027526362
150	0x3e6a92a7	0.22907506
151	0xbe39f52c	-0.18159932
152	0x3e7f6f9d	0.24944921
153	0xbe3dc7ff	-0.18533324
154	0xbe0bcd1d	-0.13652463
155	0xbdaa9c66	-0.08330612
156	0xbd976f19	-0.07394237
157	0x3ccaf371	0.024774285
158	0xbd4a9ed3	-0.049467873
159	0xbe28c203	-0.1648026
160	0x3db48cae	0.08815895
161	0x3e64ade4	0.22331959
162	0x3cb0b594	0.021570958
163	0xbe6309e2	-0.22171739
164	0x3d49123f	0.049089666
165	0xbd4228bc	-0.04740213
166	0x3d887693	0.06663241
167	0x3d12cd74	0.035840467
168	0xbe041c50	-0.12901425
169	0xbe70d33e	-0.23518082
170	0xbe2b48b0	-0.16726947
171	0x3d54e375	0.051974732
172	0x3d761b74	0.060084775
173	0xbd06607d	-0.032806862
174	0xbe179af6	-0.14805207
175	0x3e043028	0.12908995
176	0xbcaf9f72	-0.021438334
177	0xbe1a0534	-0.15041047
178	0xbe1fe3d1	-0.15614249
179	0xbdc2ab85	-0.09505371
180	0x3d18aece	0.03727608
181	0xba357876	-0.0006922552
182	0x3dbfdeca	0.093686655
183	0xbd9bac64	-0.0760124
184	0x3dccc26c	0.099980205
185	0xbe1cd3ad	-0.15315123
186	0xbe2ac02f	-0.16674875
187	0xbe250cdd	-0.16118188
188	0xbe89df62	-0.2692824
189	0xbe52fc5f	-0.20604084
190	0xbe8061d3	-0.25074634
191	0xbda32650	-0.07966292
192	0xbd78cd08	-0.060742408
193	0xbde12195	-0.109927334
194	0xbe5d1634	-0.21590501
195	0x3e0a6fac	0.13519162
196	0xbe009bb5	-0.12559398
197	0x3d186f93	0.03721578
198	0x3db6a0fc	0.08917424
199	0xbe49755b	-0.19673674
200	0xbdc0a2f5	-0.094060816
201	0x3d81b17b	0.0633268
202	0x3e220a43	0.15824227
203	0xbdc12424	-0.094307214
204	0x3dc33d16	0.095331356
205	0xbe65f391	-0.22456194
206	0xbe5590fc	-0.20856088
207	0x3deec7da	0.116592124
208	0xbd9799ea	-0.07402404
209	0x3e1857e8	0.14877284
210	0xbd44c351	-0.04803783
211	0xbe0e5025	-0.1389776
212	0x3e0fd261	0.14045097
213	0x3e020676	0.12697777
214	0xbce6f6a9	-0.028193789
215	0xbe4bd810	-0.1990664
216	0xbd961a21	-0.073292024
217	0xbe1d1229	-0.15338959
218	0x3dbce39b	0.092231
219	0xbd5c16ac	-0.05373256
220	0xbb24bfe3	-0.0025138787
221	0x3d864486	0.065560386
222	0x3c0a5e8d	0.008445394
223	0xbe3d1c52	-0.18467835
224	0x3dea7e1c	0.11449835
225	0x3d8fd1f7	0.070224695
226	0xbe3b8eaf	-0.18316148
227	0x3dc921f0	0.09820926
228	0xbac9c94b	-0.0015395073
229	0xbdba328c	-0.09091672
230	0xbe63f937	-0.22263037
231	0xbe19f81d	-0.15036054
232	0xbea280f6	-0.31739014
233	0x3be82785	0.007084789
234	0x3d33de3c	0.04391311
235	0xbe2a4566	-0.16628036
236	0x3dadc005	0.084838904
237	0xbe479d1f	-0.1949353
238	0xbd8756a0	-0.06608319
239	0xbe8a006b	-0.26953444
240	0xbdfca32e	-0.123358116
241	0xbc79d079	-0.015247458
242	0xbcc0407a	-0.023468245
243	0xbdf8bb1e	-0.12145065
244	0xbe5a9f6f	-0.21349882
245	0x3d0fa5db	0.03507028
246	0x3cf889a6	0.030339073
247	0xbd8c2654	-0.06843248
248	0xbe5f09fd	-0.21781154
249	0xbd8b1068	-0.067902386
250	0xbdd2cf13	-0.102934025
251	0x3da7a9e3	0.081867
252	0x3c02ecc2	0.007991018
253	0xbcebdb78	-0.028791174
254	0xbc5e771c	-0.013578203
255	0x3dbdfb92	0.09276499

encoder.0.bias f4 [128]
0	0x3c9bdb97	0.019025607
1	0xbd51e467	-0.051243212
2	0x3d5e7c40	0.054317713
3	0x3e5cfde5	0.21581228
4	0xbe252410	-0.16127038
5	0xbead85df	-0.33891198
6	0x3def2b0b	0.11678132
7	0xbe62ca11	-0.22147395
8	0xbd07a1d9	-0.033113334
9	0x3d969c6d	0.073540546
10	0xbdb53f39	-0.088499494
11	0x3d356361	0.04428423
12	0x3df19ade	0.11797117
13	0xbe08265c	-0.13295883
14	0xbbfc503b	-0.007699994
15	0xbd80443f	-0.06263017
16	0x3e36602d	0.17810126
17	0x3e395767	0.18099748
18	0xbe4bb482	-0.19893077
19	0xbd3e1a6c	-0.046411917
20	0xbba53774	-0.005042011
21	0x3d67a839	0.056556914
22	0xbca6bc06	-0.020353328
23	0x3c977117	0.018486543
24	0xbda4c077	-0.08044522
25	0xbdc12bf2	-0.0943221
26	0xbe47c8ad	-0.19510145
27	0x3d8551a4	0.06509712
28	0x3dc8598a	0.09782703
29	0xbe3b1521	-0.18269779
30	0xbe870fda	-0.2637928
31	0x3e121fc5	0.14269932
32	0xbe933061	-0.28747848
33	0x3da220eb	0.07916435
34	0xbe97baed	-0.296348
35	0xbde571da	-0.11203356
36	0xbe37f954	-0.17966205
37	0x3ded986e	0.11601339
38	0xbcf1bf89	-0.029510276
39	0x3de75efb	0.11297413
40	0xbd230e5e	-0.039808623
41	0x3e263b1f	0.1623349
42	0x3d93a1b5	0.072085775
43	0x3d988cc2	0.074487224
44	0x3d936b6e	0.07198225
45	0xbdd30219	-0.103031345
46	0xbd1308e1	-0.03589714
47	0xbc17b384	-0.009259108
48	0x3e0fd9aa	0.14047876
49	0xbd681dda	-0.056669094
50	0xbea6d440	-0.3258381
51	0xbe91fd9f	-0.2851381
52	0xbe601729	-0.21883835
53	0xba946de7	-0.0011324257
54	0xbdc3b12a	-0.09555276
55	0xbde13c6a	-0.10997851
56	0xbdd6a98a	-0.10481556
57	0xbd3bfd1f	-0.045895692
58	0xbe8f5e12	-0.28001457
59	0x3e6dbff4	0.23217756
60	0xbe14896e	-0.1450555
61	0xbd18eaba	-0.037333228
62	0xbcaff36a	-0.021478374
63	0xbe1fbabd	-0.15598579
64	0x3d783349	0.060595784
65	0xbd8ddcb8	-0.069268644
66	0xbdcfa617	-0.10139101
67	0xbead619d	-0.33863536
68	0x3b0a409d	0.0021095641
69	0x3a07f727	0.000518667
70	0xbdcd11c8	-0.10013157
71	0xbdbd1d2c	-0.0923408
72	0x3db5bf1e	0.08874343
73	0x3de68c20	0.112571955
74	0x3e1f223d	0.15540405
75	0xbda14c77	-0.07875913
76	0xbd76787e	-0.060173504
77	0xbe551902	-0.20810321
78	0xbe8d6cec	-0.27622163
79	0xbe1cedbc	-0.15325063
80	0xbdc3058a	-0.09522541
81	0xbddc2ede	-0.10751127
82	0xbe874e38	-0.26426864
83	0x3ccf5567	0.025309278
84	0x3d642ea7	0.055708554
85	0xbeb37ae7	-0.35054705
86	0x3dc6104b	0.096710764
87	0xbe2614e6	-0.1621891
88	0x3dc28e71	0.09499825
89	0x3bc2c82a	0.0059442716
90	0xbd87436d	-0.06604657
91	0x3e383073	0.17987232
92	0xbe48ef48	-0.19622529
93	0xbe3d6a2b	-0.18497531
94	0x3d88377a	0.06651206
95	0xbe31bbd8	-0.17356813
96	0xbe0d16a0	-0.13778162
97	0xbdadfb21	-0.08495165
98	0xbd88f7f9	-0.06687922
99	0x3db7fcd4	0.0898377
100	0x3be07d5d	0.006850882
101	0x3d76556b	0.060140055
102	0xbde56c3c	-0.11202285
103	0xbd71c1de	-0.059022777
104	0xbdc66e16	-0.09688966
105	0x3c8df9f1	0.017331095
106	0xbda97ef7	-0.0827617
107	0x3d666292	0.056246348
108	0x3d2ad960	0.04171121
109	0x3db069b2	0.0861391
110	0xbd80c794	-0.062880665
111	0xbde9e43e	-0.11420487
112	0x3d11a1f9	0.03555486
113	0x3e1b2b5f	0.15153264
114	0xbe6bc5cb	-0.23024671
115	0xbd990801	-0.0747223
116	0xbdfcaff0	-0.12338245
117	0xbe8ad7ba	-0.2711771
118	0xbea593f8	-0.32339454
119	0xbdef77f6	-0.116928026
120	0x3cf0d5b6	0.02939878
121	0xbe7c6202	-0.24646762
122	0x3cd9f85f	0.02660769
123	0x3cfbcc6a	0.03073712
124	0xbe8e5488	-0.27798867
125	0x3c9c30b8	0.0190662
126	0x3e158691	0.14602114
127	0xbe904c69	-0.28183296

conv1.bias f4 [128]
0	0xbdc3d1a0	-0.09561467
1	0xbd500c1e	-0.050792806
2	0xbd88f2c4	-0.06686929
3	0xbd846d3c	-0.06466147
4	0xbdb9ff04	-0.090818435
5	0xbd52277c	-0.051307186
6	0xbd9c8ca7	-0.07644015
7	0xbd9f16b0	-0.07767999
8	0xbd72a0d3	-0.059235405
9	0xbd60fb02	-0.05492688
10	0xbdbf0cf0	-0.093286395
11	0xbda4d84a	-0.08049066
12	0xbd69b319	-0.057055566
13	0xbd68e179	-0.056855652
14	0xbcdbd7aa	-0.026836235
15	0xbd797f5e	-0.060912482
16	0xbd140a08	-0.03614238
17	0xbd86ba19	-0.06578464
18	0xbd05527d	-0.03254937
19	0xbd19be08	-0.037534744
20	0xbd84854c	-0.06470737
21	0xbd4e3941	-0.05034757
22	0xbd922ef3	-0.07137861
23	0xbc318fcc	-0.0108375065
24	0xbd47a484	-0.04874088
25	0xbdc9fbe4	-0.098624974
26	0xbd8a5884	-0.06755164
27	0xbccde4f3	-0.025133586
28	0xbd6a5eef	-0.057219442
29	0xbd26248e	-0.040562205
30	0xbd7f38a7	-0.062309887
31	0xbd4a63c1	-0.04941154
32	0xbdaa6c59	-0.08321447
33	0xbdabc305	-0.083868064
34	0xbd9af793	-0.07566752
35	0xbdbd9691	-0.09257234
36	0xbd631262	-0.055437453
37	0xbcf49530	-0.029856294
38	0xbd5de974	-0.054177716
39	0xbd3de7dd	-0.0463637
40	0xbd91dd20	-0.07122254
41	0xbd8506f0	-0.06495464
42	0xbdabbdb9	-0.08385796
43	0xbdad2a57	-0.08455341
44	0xbd5310b6	-0.05152961
45	0xbd3c1282	-0.045916088
46	0xbc8e81b6	-0.017395835
47	0xbd6a8aed	-0.057261396
48	0xbd276d95	-0.04087599
49	0xbd823056	-0.063568756
50	0xbd66149d	-0.056172002
51	0xbd7533cb	-0.059863847
52	0xbd63a967	-0.055581477
53	0xbddf70ec	-0.1091021
54	0xbd9b4f8d	-0.075835325
55	0xbd38971f	-0.045065995
56	0xbd71ad50	-0.059003174
57	0xbd71f624	-0.05907263
58	0xbd848c63	-0.06472089
59	0xbdbe192d	-0.09282146
60	0xbd6b6ae4	-0.057474986
61	0xbda0788b	-0.07835492
62	0xbd5bd49f	-0.05366957
63	0xbd95222e	-0.0728191
64	0xbd2f3f69	-0.042785082
65	0xbd7a8f01	-0.061171535
66	0xbd1ed2fb	-0.038775425
67	0xbdb6f2ea	-0.08933051
68	0xbd531dbc	-0.05154203
69	0xbd73d16d	-0.059525896
70	0xbd3e55ab	-0.046468418
71	0xbde9d3da	-0.114173606
72	0xbd89b277	-0.067234926
73	0xbda1acfe	-0.07894324
74	0xbd800584	-0.06251052
75	0xbcb89037	-0.022529704
76	0xbd9e99ee	-0.077442035
77	0xbd575f2e	-0.052581005
78	0xbda80b87	-0.08205324
79	0xbd5d4a9d	-0.054026235
80	0xbd5566a8	-0.052099854
81	0xbdb764f4	-0.08954802
82	0xbd75fba7	-0.060054448
83	0xbd807c0e	-0.062736616
84	0xbd722d9f	-0.05912554
85	0xbd93bcf0	-0.07213771
86	0xbd75fb9b	-0.060054403
87	0xbd5c3e28	-0.053770214
88	0xbd7cbae8	-0.061701685
89	0xbd771de4	-0.06033124
90	0xbd39395a	-0.04522071
91	0xbd4b92d7	-0.049700584
92	0xbd655002	-0.055984505
93	0xbd76af82	-0.06022597
94	0xbd1d8e9f	-0.038466092
95	0xbd76783b	-0.060173254
96	0xbd75fb10	-0.060053885
97	0xbdd84c5d	-0.1056144
98	0xbd65b367	-0.056079295
99	0xbb3bc0ee	-0.002864893
100	0xbd138537	-0.036015715
101	0xbd66b2d5	-0.05632289
102	0xbd6c00f4	-0.057618096
103	0xbd90c65b	-0.07069083
104	0xbd5d0983	-0.05396415
105	0xbd2a537f	-0.041583534
106	0xbd90ecdf	-0.070764296
107	0xbd5564f5	-0.052098233
108	0xbd830d47	-0.06399017
109	0xbd869e3c	-0.065731496
110	0xbd6ecded	-0.058301855
111	0xbdb01812	-0.08598341
112	0xbe0140f8	-0.1262244
113	0xbdb32b78	-0.087485254
114	0xbd436d11	-0.047711436
115	0xbd91a6bf	-0.071118824
116	0xbd472b21	-0.048625115
117	0xbd8d2cbc	-0.06893298
118	0xbd33d873	-0.043907594
119	0xbd7c845b	-0.06164966
120	0xbd5a6741	-0.053321127
121	0xbd7d9e20	-0.061918378
122	0xbe050db1	-0.12993504
123	0xbdad8a49	-0.084736414
124	0xbd75fb9b	-0.060054403
125	0xbdb1a8ca	-0.08674772
126	0xbc590c69	-0.013247588
127	0xbda0b354	-0.07846704

conv1.lin.weight f4 [128, 128]
0	0x3d0514b3	0.032490443
1	0xbd7238ac	-0.059136078
2	0x3b7db2b6	0.0038711256
3	0xbc302c38	-0.01075273
4	0xbdf7a4cc	-0.120919794
5	0xbe120412	-0.14259365
6	0xbdc30427	-0.09522276
7	0xbe3f20b8	-0.18664825
8	0xbdad857a	-0.08472724
9	0xbe1363e7	-0.14393578
10	0xbe4ebf67	-0.20190202
11	0xbd38bd18	-0.04510221
12	0xbd3eccc1	-0.046581987
13	0xbb70f298	-0.003676569
14	0xbdb7056a	-0.089365795
15	0xbe0024e0	-0.12514067
16	0xbda3963b	-0.079876386
17	0xbe47a235	-0.19495471
18	0xbda54edf	-0.08071684
19	0x3c663584	0.014050845
20	0xbd771579	-0.060323212
21	0xbd20467c	-0.03912972
22	0x3db89489	0.09012706
23	0x3cf909df	0.030400215
24	0x3d9b9a61	0.07597805
25	0x3d665e8e	0.056242518
26	0x3a2ec99b	0.0006667615
27	0xbd73f20c	-0.059557006
28	0xbe51d704	-0.20492178
29	0xbd2f24f8	-0.042759866
30	0x3c2a985e	0.010412304
31	0xbd2d45b2	-0.042302795
32	0x3c9cd355	0.01914374
33	0xbe51ee9e	-0.20501181
34	0xbd9ae70c	-0.075636
35	0x3da66c1c	0.08126089
36	0xbe447fc8	-0.1918937
37	0xbdaede05	-0.085384406
38	0xbce25200	-0.027626991
39	0xbe3c0c2e	-0.18364021
40	0xbdfbf957	-0.12303417
41	0xbe336e80	-0.17522621
42	0x3d0d84bb	0.03455041
43	0xbde76b3e	-0.11299752
44	0xbd7e5ca6	-0.062100075
45	0x3d6c7a37	0.05773374
46	0xbd2345ab	-0.039861362
47	0xbdcc9650	-0.09989607
48	0x3cfb0d3c	0.03064596
49	0xbe30f05d	-0.17279191
50	0x3d6cd479	0.057819817
51	0xbdf8c029	-0.12146027
52	0x3da85ebf	0.082211964
53	0xbdd8792f	-0.10569989
54	0xb88ccc09	-6.713725e-05
55	0x3d8bb527	0.068216614
56	0xbe23b72c	-0.15987843
57	0xbd94c9c3	-0.072650455
58	0xbdfee55f	-0.12446093
59	0xbbd037c6	-0.006354305
60	0xbdb71103	-0.089387916
61	0x3c13d681	0.00902331
62	0xbe25faff	-0.16209029
63	0xbdf7326c	-0.12070164
64	0xbdaa93c3	-0.083289646
65	0x3cb8be63	0.022551721
66	0x3b899339	0.0041984585
67	0xbdd2ffa8	-0.10302669
68	0x3ccf0d3e	0.025274869
69	0xbe4edde8	-0.20201838
70	0xbd51e473	-0.051243257
71	0x3d16969a	0.03676472
72	0xbdce3533	-0.10068741
73	0xbe1f786c	-0.15573281
74	0xbe1cfd85	-0.15331085
75	0x3d8c0d6a	0.06838496
76	0xbd54d21a	-0.05195818
77	0xbcd88d6a	-0.026434619
78	0xbe2b4a6e	-0.16727611
79	0x3c89b6f7	0.016810877
80	0xbdbbbe2d	-0.091671325
81	0x3d44f8a1	0.048088674
82	0x3c8c3939	0.01711713
83	0xbe48a72a	-0.19595018
84	0x3d67146b	0.056415956
85	0xbe29e884	-0.16592604
86	0xbe0b08f4	-0.13577634
87	0xbd8436c6	-0.0645576
88	0xbe60ca90	-0.21952271
89	0xbd90ede0	-0.07076621
90	0xbe095feb	-0.13415496
91	0xbdde8547	-0.108652644
92	0xbd983c65	-0.07433394
93	0xbdb5edda	-0.08883257
94	0xbbcbb6bf	-0.0062168534
95	0xbdeb7714	-0.11497322
96	0xbd718bf9	-0.05897138
97	0xbd285def	-0.041105207
98	0xbdc7eff2	-0.09762563
99	0xbe50dba7	-0.2039629
100	0x3d01a448	0.03165081
101	0xbe70486d	-0.23465128
102	0xbc9cf121	-0.019157948
103	0x3d20bed4	0.039244488
104	0x3dcc5fa5	0.0997918
105	0xbe1b44f0	-0.15163016
106	0x3d32a2d2	0.04361231
107	0xbe4dd60b	-0.20101182
108	0xbe423f8a	-0.1896955
109	0xbd046312	-0.032321043
110	0xbe0691e2	-0.13141587
111	0xbe263f23	-0.16235022
112	0xbd138940	-0.036019564
113	0x3d591000	0.052993774
114	0xbab4b619	-0.001378718
115	0xba820ff2	-0.0009922965
116	0xbcc4c277	-0.02401851
117	0x3d4b7c21	0.049678925
118	0xbe04c02c	-0.12963933
119	0x3d506abc	0.05088304
120	0xbcdaf940	-0.02673018
121	0x3d2eea30	0.042703807
122	0xbe640227	-0.22266446
123	0xbcb8b8c5	-0.022549042
124	0xbddaee49	-0.106899805
125	0xbd99a2aa	-0.07501729
126	0xbe678ac7	-0.22611533
127	0xbdc3f369	-0.09567911
128	0xbdcb19c3	-0.09917023
129	0xbdd1e2ff	-0.10248374
130	0x3e22cbc5	0.15898044
131	0xbe18a1b0	-0.14905429
132	0xbd35181d	-0.04421245
133	0x3d96a477	0.07355588
134	0xbcae385e	-0.021267112
135	0x3dda6077	0.106629305
136	0xbd1431c3	-0.03618027
137	0x3d26ba19	0.04070482
138	0x3c8d8210	0.017273933
139	0xbddab9fd	-0.10680006
140	0xbe28df11	-0.16491343
141	0xbdf47471	-0.11936272
142	0xbe16f915	-0.14743455
143	0xbe0a24b0	-0.13490558
144	0x3d0999e4	0.033594027
145	0xbe088fa0	-0.13336039
146	0xbda6fc74	-0.0815362
147	0xbdb63398	-0.088965595
148	0xbe410f83	-0.18853574
149	0xbd9f1191	-0.077670224
150	0x3cead3b9	0.02866541
151	0xbd515816	-0.051109396
152	0x3ccb0489	0.024782436
153	0x3e003fb2	0.12524298
154	0xbd45cb6a	-0.048289694
155	0xbe28bfb7	-0.16479383
156	0xbe0945a1	-0.13405468
157	0xbda7983c	-0.08183333
158	0x3d461919	0.04836378
159	0x3de610bb	0.1123366
160	0x3d866aba	0.06563325
161	0xbc843606	-0.016139042
162	0x3a28586e	0.00064218685
163	0x3d65ee50	0.056135476
164	0xbcd29b21	-0.025708737
165	0x3d9253ad	0.07144866
166	0xbc35ae1e	-0.011088876
167	0x3de7683d	0.11299179
168	0xbcbc1fd9	-0.022964405
169	0x3d517ab5	0.051142413
170	0xbc000b9c	-0.007815268
171	0x3d2405f3	0.040044736
172	0x3dfc2eb3	0.12313595
173	0x3dea0d9d	0.11428378
174	0x3dac17dc	0.08402988
175	0x3de9e826	0.11421232
176	0xbdd04bf2	-0.101707354
177	0xbdf8c31c	-0.12146589
178	0x3c3578b2	0.011076139
179	0x3d08592b	0.033288162
180	0xbdbd0975	-0.092303194
181	0x3c1808b3	0.009279418
182	0x3d1eed56	0.03880056
183	0xbd73e589	-0.059545074
184	0xbd2bdb3c	-0.041957125
185	0xbd66f8f0	-0.05638975
186	0x3e2df44c	0.16987723
187	0xbd863006	-0.065521285
188	0xbd9b062c	-0.075695366
189	0x3db6e512	0.089304104
190	0xbda25407	-0.07926183
191	0xbe47a8d9	-0.19498004
192	0x3d132358	0.03592238
193	0xbd11ea3a	-0.035623766
194	0xbc72b36b	-0.014813284
195	0x3d9c3ad0	0.07628405
196	0xbd69af85	-0.057052154
197	0xbd5ad7ba	-0.05342839
198	0xbd08591b	-0.033288103
199	0x3dceaf2b	0.100920044
200	0xbda3fd1a	-0.0800726
201	0xbd2520c5	-0.040314455
202	0xbe255d95	-0.1614898
203	0xbd5f9af5	-0.054591138
204	0xbe15d3ce	-0.14631578
205	0x3d759789	0.05995897
206	0x3e18ed7c	0.14934343
207	0x3cdaeb54	0.026723541
208	0x3de9236d	0.1138371
209	0xbe1806c5	-0.14846332
210	0xb9b4578a	-0.00034397497
211	0x3c7c4d04	0.015399221
212	0x3e0eff74	0.13964635
213	0xbdda4417	-0.10657518
214	0xbe054e0f	-0.13018058
215	0xbdef5212	-0.116855755
216	0x3dae655d	0.08515427
217	0xbcabe4ed	-0.020983184
218	0x3dad5d8e	0.0846511
219	0xbd73b34a	-0.059497155
220	0xbda20503	-0.07911112
221	0xb9e1e172	-0.00043083314
222	0x3b80717b	0.003919778
223	0x3de612bf	0.11234044
224	0x3d696bdf	0.05698764
225	0xbddcb107	-0.10775953
226	0xbd71c37b	-0.059024315
227	0x3d4e949e	0.0504347
228	0x3dcbf561	0.09958912
229	0xbd07ec61	-0.033184413
230	0x3e044ce0	0.1291995
231	0x3d435a24	0.047693387
232	0xbe22e78c	-0.1590864
233	0xbdb23630	-0.08701742
234	0x3d6f9bce	0.058498196
235	0xbd2d0757	-0.042243328
236	0xbe22e534	-0.15907747
237	0xbdd77bbd	-0.10521648
238	0xbded9d36	-0.11602251
239	0x3d5b62e6	0.053561114
240	0x3b21eba9	0.0024707115
241	0xbdfa0aeb	-0.12209114
242	0xbb2a61c2	-0.002599821
243	0x3d31e874	0.043434575
244	0x3d88c62f	0.066784255
245	0xbcd80619	-0.026370095
246	0x3d95d382	0.073157325
247	0xbdd38597	-0.103282146
248	0xbe2097a0	-0.1568284
249	0x3d6ee06a	0.058319487
250	0x3c7e7e41	0.015533031
251	0x3dd3937c	0.10330865
252	0xbbd122b3	-0.0063823103
253	0x3d27e27b	0.040987473
254	0x3d8c6a35	0.06856195
255	0xbd541e21	-0.051786546

conv2.bias f4 [128]
0	0xbdf57c4e	-0.119866
1	0xbd0f09d0	-0.034921467
2	0xbdc4521f	-0.09585976
3	0xbd5993fe	-0.053119652
4	0xbdac5ac1	-0.084157474
5	0x3c778bdf	0.015109031
6	0xbc2a0e06	-0.01037932
7	0xbcf500bd	-0.029907579
8	0xbccffa6c	-0.025387965
9	0xbd266706	-0.040625595
10	0xbd9cdd33	-0.07659378
11	0x3dbbc221	0.091678865
12	0xbd730400	-0.059329987
13	0xbd27e1d4	-0.04098685
14	0xbd651603	-0.055929195
15	0xbd923345	-0.07138685
16	0x3d8a9b44	0.06767896
17	0xbd1de896	-0.03855189
18	0xbd6c596b	-0.057702463
19	0xbd5153f1	-0.051105443
20	0xbd7debd7	-0.061992493
21	0xbd0880c5	-0.03332593
22	0xbd809595	-0.062785305
23	0xbda3c5ed	-0.07996736
24	0xbd793af9	-0.060847256
25	0xbd963cc3	-0.07335808
26	0xbda8e39f	-0.0824654
27	0xbe6448b6	-0.22293362
28	0xbd5fe46b	-0.054661196
29	0xbd63eff1	-0.055648748
30	0xbd4887bf	-0.048957583
31	0x3d6c1620	0.057638288
32	0xbcbcc666	-0.023043822
33	0xbe694998	-0.2278198
34	0xbe1b4c38	-0.15165794
35	0xbd6b87ee	-0.05750268
36	0xbdab3ddc	-0.08361408
37	0xbe304b2c	-0.17216176
38	0xbd588c9b	-0.052868467
39	0xbd59a647	-0.05313709
40	0xbd78e87b	-0.060768586
41	0xbdab9e6c	-0.08379826
42	0xbd04e926	-0.03244891
43	0xbd839b13	-0.064260624
44	0xbe053956	-0.13010153
45	0x3a259e48	0.0006317836
46	0xbd2906e2	-0.04126633
47	0xbdb1e898	-0.08686942
48	0xbd4e91bd	-0.050431956
49	0xbe4030d1	-0.18768622
50	0xbd776c87	-0.060406234
51	0xbda0d7a3	-0.078536294
52	0xbd9391e8	-0.07205564
53	0x3e7406e0	0.23830748
54	0xbd4a560c	-0.049398467
55	0xbdb953f9	-0.0904922
56	0xbdfcfee7	-0.12353306
57	0xbd5e59aa	-0.05428473
58	0xbcca3241	-0.024682166
59	0xbb09a303	-0.0021001704
60	0xbe15f6cd	-0.14644928
61	0xbcb63ad4	-0.022244848
62	0xbd4a43a9	-0.049380932
63	0xbe2981ac	-0.16553372
64	0xbe0e83ed	-0.13917513
65	0xbdb7ffc0	-0.08984327
66	0xbd93f56f	-0.07224547
67	0xbd5ec1eb	-0.054384153
68	0xbd34d6eb	-0.044150274
69	0xbda746a4	-0.081677705
70	0x3d98a201	0.07452775
71	0xbd30fb6b	-0.04320852
72	0xbd5ca6e6	-0.053870104
73	0xbdaefb31	-0.08544005
74	0xbcdc1a78	-0.02686809
75	0xbde2aaef	-0.11067759
76	0xbd9d7772	-0.07688798
77	0xbd7b3aa2	-0.061335213
78	0xbd8426f1	-0.0645274
79	0xbd8a1bf8	-0.06743616
80	0xbcfd7c24	-0.030942984
81	0xbc640b47	-0.013918704
82	0xbd4574b5	-0.048207004
83	0xbdf2405b	-0.11828681
84	0xbd98478e	-0.07435523
85	0xbda19472	-0.07889642
86	0xba8426f2	-0.0010082407
87	0xbc92bd20	-0.017912447
88	0xbd2b3d61	-0.041806582
89	0xbd048cca	-0.03236083
90	0xbd628ba2	-0.055308945
91	0x3d05e9a7	0.03269353
92	0xbdf045b4	-0.11732045
93	0xbd45b42e	-0.048267536
94	0xbd7f66ec	-0.062354013
95	0xbdb97713	-0.09055915
96	0xbe2ae4cf	-0.16688846
97	0xbd75fbab	-0.060054462
98	0xbda533ca	-0.080665186
99	0xbdc6ea7f	-0.09712695
100	0xbd37c9b4	-0.044870093
101	0x3d27d1ac	0.040971443
102	0xbdae5920	-0.08513093
103	0xbd77d15e	-0.060502402
104	0xbdaa4261	-0.08313442
105	0xbd9b752b	-0.075907074
106	0xbd4f16bb	-0.050558787
107	0xbdda2a7c	-0.106526345
108	0xbd923cf7	-0.07140534
109	0x3b21a062	0.0024662246
110	0xbdb7178e	-0.089400396
111	0xbd832444	-0.064034015
112	0xbdd5f931	-0.1044792
113	0xbe78d3ce	-0.24299547
114	0xbd155bad	-0.036464382
115	0xbdc38d76	-0.09548466
116	0xbd89c82c	-0.06727633
117	0xbe9f38cd	-0.31098023
118	0xbe4e7050	-0.20160031
119	0xbccb0361	-0.024781885
120	0xbd7afcc6	-0.06127622
121	0x3db31406	0.087440535
122	0xbda27525	-0.079325
123	0x3e73996a	0.23788992
124	0xbdf68f25	-0.120390214
125	0xbe0702ac	-0.13184613
126	0xbdfc5b22	-0.1232207
127	0xbc826398	-0.01591663

conv2.lin.weight f4 [128, 128]
0	0xbdb7646c	-0.08954701
1	0xbdce6a7c	-0.10078904
2	0xbd7e3866	-0.062065504
3	0xbbfbef81	-0.007688463
4	0x3ce0004d	0.027343893
5	0xbc4ec5ce	-0.0126204025
6	0xbdb15d51	-0.08660377
7	0xbd048e60	-0.032362342
8	0xbe2edeb8	-0.17077148
9	0xbe496dbb	-0.19670765
10	0x3da255cf	0.07926523
11	0xbd27e8e9	-0.040993605
12	0xbe15b949	-0.14621462
13	0xbdee90b5	-0.116486944
14	0xbcd83da1	-0.026396574
15	0xbe1f2293	-0.15540533
16	0xbda86357	-0.082220726
17	0xbb643fe5	-0.0034828123
18	0x3d999cb0	0.07500589
19	0xbe192de4	-0.14958912
20	0xbe360baa	-0.17777887
21	0xbe187a8b	-0.14890496
22	0xbdbc7021	-0.092010744
23	0xbe525f58	-0.20544183
24	0xbd77b29d	-0.060473073
25	0xbcf23e19	-0.029570626
26	0xbd71b4eb	-0.059010427
27	0xbdbf8477	-0.093514375
28	0xbe4977b9	-0.19674577
29	0x3da74c8b	0.08168896
30	0x3cf21e27	0.029555393
31	0x3dce3896	0.10069387
32	0x3d8ad8a9	0.06779606
33	0x3d3b2bc3	0.04569603
34	0x3cf1eacd	0.029530907
35	0x3ddde0b5	0.10833875
36	0xbe5a4cda	-0.21318379
37	0xbe142b1b	-0.14469568
38	0xbe28f890	-0.16501069
39	0x3e2ac7c3	0.16677766
40	0xbe1d1a76	-0.15342125
41	0x3e3d3025	0.18475397
42	0xbdd25c08	-0.1027146
43	0x3d83983e	0.06425522
44	0xbdf74aa4	-0.120747834
45	0xbe2da0dc	-0.16955894
46	0x3db317dc	0.08744785
47	0xbd99c45a	-0.07508154
48	0xbe54e8cd	-0.20791931
49	0x3d5d56e9	0.054037962
50	0xbe53a233	-0.20667343
51	0x3db67e80	0.08910847
52	0xbc33454f	-0.010941817
53	0xbd45a67e	-0.048254482
54	0xbe38a1ec	-0.18030518
55	0xbdf18de9	-0.11794645
56	0x3d60abbc	0.05485128
57	0xbd7df4b5	-0.06200095
58	0x3c201eb0	0.0097729415
59	0xbd388f72	-0.045058675
60	0xbd76c566	-0.060246848
61	0xbdd586d5	-0.10426108
62	0xbdd5d009	-0.1044007
63	0xbdcb81e1	-0.09936882
64	0xbe0db89f	-0.13839959
65	0x3d31f5aa	0.043447174
66	0xbdf57294	-0.11984745
67	0xbe22dc4f	-0.15904354
68	0xbdc82a4b	-0.09773692
69	0x3d87ec04	0.06636813
70	0x3c2e37e6	0.010633444
71	0x3d52d3bd	0.05147146
72	0x3cc447cc	0.023960017
73	0xbdc47527	-0.095926575
74	0xbdb36f8d	-0.08761511
75	0xbd9bafbc	-0.07601878
76	0xbcfd7f6f	-0.030944554
77	0xbe33e859	-0.17569102
78	0xbe438972	-0.190954
79	0x3d68d4cf	0.056843575
80	0xbe0b757b	-0.13619034
81	0xbe134ce6	-0.14384803
82	0x3d020803	0.03174592
83	0xbdf27289	-0.11838252
84	0x3d6daedb	0.058028083
85	0xbd9e57a1	-0.07731558
86	0xbe0de457	-0.13856636
87	0x3e12a66d	0.14321299
88	0xbe4b1d67	-0.19835435
89	0xbd9346d0	-0.07191241
90	0xbd1f2909	-0.038857494
91	0x3dd352b8	0.10318512
92	0xbd42d359	-0.047564838
93	0x3d5840da	0.052796222
94	0xbe445e0b	-0.191765
95	0x3da5d380	0.08096981
96	0xbd24c4e7	-0.040226843
97	0xbdbc244d	-0.09186611
98	0xbe269603	-0.16268162
99	0x3c36aded	0.011149866
100	0x3d52d6c4	0.051474348
101	0x3cf9754f	0.030451445
102	0xbd4834c3	-0.048878442
103	0x3b8fa7a6	0.004383999
104	0xbe37ef80	-0.17962456
105	0x39fef54d	0.0004862942
106	0xbda09b35	-0.078421034
107	0xbce144ac	-0.027498566
108	0xbe1f4f3c	-0.1555757
109	0xbe3130cb	-0.1730377
110	0xbd843a5a	-0.06456442
111	0xbd7d7112	-0.06187541
112	0x3d94cacc	0.07265243
113	0xbd1998d3	-0.03749926
114	0x3d3f6722	0.046729214
115	0xbdf8e25c	-0.121525496
116	0xbe348328	-0.17628157
117	0xbe032602	-0.12807468
118	0x3d870900	0.065935135
119	0x3c15e1a9	0.00914804
120	0xbce9793a	-0.028500188
121	0xbd450832	-0.04810352
122	0x3d93ca56	0.07216327
123	0xbd8d1403	-0.068885826
124	0x3d796e95	0.060896475
125	0xbcd6c089	-0.026214855
126	0x3ce00c40	0.027349591
127	0xbc36aee4	-0.011150096
128	0x3cb1c2f0	0.021699399
129	0x3cfcedd8	0.030875131
130	0xbda62734	-0.08112946
131	0x3dbc62aa	0.09198506
132	0xbe04f7d9	-0.12985171
133	0xbdb6298e	-0.08894645
134	0xbd1039b5	-0.035211284
135	0xbc7556f8	-0.014974348
136	0xbddc3f9d	-0.10754321
137	0xbdc521f5	-0.096256174
138	0x3de476cd	0.11155472
139	0x3d83d976	0.06437962
140	0x3d6d7b67	0.057979014
141	0xbd8c541d	-0.06851981
142	0xbd2d1fba	-0.042266585
143	0x3dbedb34	0.093191534
144	0xbe26b50c	-0.16280001
145	0x3ddd9e4c	0.10821208
146	0xbe29ff6b	-0.1660134
147	0xbe0c4930	-0.13699794
148	0xbd8b2d11	-0.06795705
149	0x3cda46b7	0.026645048
150	0xbe06f245	-0.13178356
151	0xbdf89bb2	-0.121390715
152	0xbe178be8	-0.14799464
153	0x3d03cdaa	0.03217856
154	0xbda180af	-0.078858726
155	0xbe2cf288	-0.16889393
156	0x3cfe84a2	0.031069104
157	0xbe2f5a35	-0.17124255
158	0x3d73d24b	0.059526723
159	0xbe4de784	-0.20107847
160	0x3e20d8c8	0.15707695
161	0xbdcd1cf1	-0.10015286
162	0xbd1aa49a	-0.037754633
163	0xbdf6ab26	-0.12044363
164	0xbe323441	-0.17402746
165	0xbdd5c95b	-0.10438796
166	0xbd7f02a3	-0.062258374
167	0xbe15dc3a	-0.14634791
168	0xbe2538c9	-0.16134943
169	0x3cd8555f	0.026407896
170	0x3ded422d	0.11584888
171	0xbb8a43e1	-0.0042195176
172	0x3d08db40	0.033412218
173	0xbd7e1bca	-0.06203822
174	0xbdd1f4b7	-0.10251754
175	0xbc4877c6	-0.012235587
176	0x3bbb9a05	0.0057251477
177	0x3cae03cb	0.021242043
178	0x3d234bb8	0.039867133
179	0xbdaa8ae1	-0.0832727
180	0xbcec144f	-0.028818278
181	0xbd632f3a	-0.05546496
182	0xbdd47ed3	-0.10375752
183	0xbe275ba6	-0.16343555
184	0xbb862758	-0.0040940456
185	0xbde59219	-0.112095065
186	0x3e165001	0.14678957
187	0x3d6d67a5	0.05796017
188	0xbd27ac26	-0.040935658
189	0x3e19e86e	0.15030071
190	0xbcc847e0	-0.024448335
191	0xbdeaf24b	-0.11471995
192	0xbe0e811d	-0.1391644
193	0xbd85a2f1	-0.06525219
194	0x3d849eb7	0.06475585
195	0xbd9f9c5a	-0.077934936
196	0xbe12b926	-0.14328441
197	0x3e45de76	0.19323143
198	0xbe105412	-0.1409457
199	0x3db38300	0.08765221
200	0x3e3947bf	0.18093775
201	0xbcbab39f	-0.022790728
202	0x3d5b0c29	0.053478394
203	0xbc3348db	-0.010942663
204	0x3c0964bf	0.008385836
205	0x3d927a36	0.07152216
206	0x3d832b7a	0.06404777
207	0xbe49a059	-0.19690074
208	0x3ddaeab1	0.10689295
209	0x3dca74bf	0.09885549
210	0x3d336f55	0.043807346
211	0xbd64d868	-0.055870444
212	0x3c8102cb	0.015748402
213	0xbda3bbe7	-0.07994824
214	0x3e17effe	0.14837644
215	0xbe39bc3d	-0.18138213
216	0xbca45aa8	-0.02006276
217	0x3d89265f	0.06696772
218	0xbca1f8e2	-0.019771997
219	0x3db1d7b9	0.08683724
220	0x3d581b7e	0.052760594
221	0x3b7a17cd	0.003816116
222	0xbd10f8ed	-0.035393644
223	0xbc886950	-0.01665178
224	0x3e53d59a	0.20686951
225	0xbdd99fe8	-0.10626203
226	0xbc626c78	-0.013819806
227	0xbe219034	-0.15777665
228	0xbe0db3b0	-0.13838077
229	0xbdb4c677	-0.08826917
230	0xbb0d3873	-0.002154854
231	0xbdd100e7	-0.1020525
232	0xbd862ad2	-0.06551136
233	0x3d2ae0fc	0.041718468
234	0x3a1b96de	0.0005935262
235	0xbe422138	-0.18957984
236	0x3e086b2b	0.13322131
237	0xbd067e19	-0.0328351
238	0xbbc80909	-0.0061045927
239	0x3d89a7ba	0.067214444
240	0xbceca0a3	-0.028885191
241	0x3ce0cbdc	0.027440958
242	0x3dca58cc	0.09880218
243	0xbe40a443	-0.18812661
244	0xbe076689	-0.13222708
245	0x3cafb881	0.021450283
246	0x3d9b5583	0.075846694
247	0xbd429c0b	-0.047512095
248	0x3dac40e0	0.084108114
249	0x3decb4c5	0.115579166
250	0xbdc9e1d1	-0.09857524
251	0x3dffe7a1	0.124953516
252	0x3e5204bd	0.2050962
253	0x3b937b81	0.004500807
254	0xbc480ecc	-0.012210559
255	0xbcc1697d	-0.023609871

cls_head.0.weight f4 [4, 128]
0	0xbc754af2	-0.014971482
1	0xbc3a9249	-0.011387416
2	0xbd050f2c	-0.032485172
3	0xbb96841e	-0.0045933863
4	0x3c6f72df	0.01461479
5	0xbca9306d	-0.020652974
6	0x3d10c6ff	0.035346027
7	0xbb8fe3ff	-0.004391193
8	0xbd8632b4	-0.065526396
9	0x3cd990ee	0.026558366
10	0xbbf14a83	-0.007363619
11	0x3d049b38	0.03237459
12	0xbd2a8cbb	-0.041638117
13	0xbce25ee2	-0.027633134
14	0x3c7f4cae	0.015582247
15	0xbce5fef3	-0.02807567
16	0x3dcc5b43	0.09978344
17	0xbd065ead	-0.032805134
18	0x3d011410	0.031513274
19	0x3db239ab	0.087024055
20	0xbca9f1f5	-0.020745257
21	0xbd92de21	-0.07171274
22	0x3c2ab19a	0.01041832
23	0x3db09534	0.08622208
24	0x39377453	0.00017495574
25	0x3d1a7fb0	0.03771943
26	0xbc80f24a	-0.015740532
27	0x3c271eb5	0.010200192
28	0x3cd321d5	0.025772968
29	0x3dde6cc6	0.10860591
30	0x3cb335a3	0.021876162
31	0xbcd03503	-0.025415903
32	0xbc9a24e1	-0.018816413
33	0x3e00a2ef	0.12562154
34	0x3d84c48f	0.06482803
35	0x3c0c3a7c	0.008558866
36	0xbc92b327	-0.017907692
37	0xbbc102fe	-0.0058902493
38	0x3c9058cf	0.017620472
39	0x3d0f68c7	0.035012033
40	0xbcde5ea1	-0.027144732
41	0xbab22529	-0.0013591397
42	0x3cfb10cc	0.030647658
43	0x3d3a496d	0.04548018
44	0xbd159137	-0.03651544
45	0xbd15c25d	-0.036562312
46	0x3dcc447b	0.09973999
47	0x3e0ab247	0.1354457
48	0xbd069c04	-0.03286363
49	0xbd194fda	-0.037429668
50	0x3c9710c9	0.018440621
51	0x3dbce326	0.092230126
52	0xbc34adff	-0.011027812
53	0xbcdd4393	-0.027009761
54	0xbcdb49e9	-0.026768642
55	0xbcae73f1	-0.02129552
56	0xbc8c911d	-0.01715904
57	0x3da7f384	0.08200744
58	0xbd15360a	-0.03642849
59	0xbd558da4	-0.052137032
60	0x3dbf1172	0.09329499
61	0xbd39eefd	-0.045393933
62	0x3c95b1dd	0.018273288
63	0x3d4f71b7	0.050645556
64	0x3d659a13	0.05605514
65	0x3b17cdce	0.002316344
66	0x3d262033	0.04055805
67	0xbc122599	-0.008920097
68	0xbd85a788	-0.06526095
69	0x3de23063	0.11044385
70	0x3da1c6ce	0.07899247
71	0x3dbc6e43	0.09200718
72	0x3d8fa5d5	0.07014052
73	0x3ce560f3	0.02800033
74	0x3c51a87c	0.012796517
75	0x3c6f8eda	0.014621461
76	0x3d390ac7	0.045176294
77	0x3b8d93e9	0.004320611
78	0x3d0f06d2	0.034918614
79	0xbb0abba7	-0.0021168978
80	0xbd2c03f7	-0.04199597
81	0xbc7f207d	-0.015571711
82	0xba7d1187	-0.0009653796
83	0xbd131ddd	-0.03591715
84	0xbbf896ff	-0.0075863595
85	0x3d702b87	0.05863526
86	0xbd6d6c93	-0.057964873
87	0x3d560c0b	0.05225758
88	0xbcb15659	-0.02164762
89	0xbd9cc6ae	-0.07655083
90	0x3d4d002c	0.050048992
91	0x3e233333	0.159375
92	0xbc8a5250	-0.016884953
93	0xbd455862	-0.04817999
94	0xbc65bd35	-0.014022161
95	0x3d4b8ff8	0.049697846
96	0xbd4225c0	-0.047399282
97	0x3c6c83c5	0.014435713
98	0x3d1e1b76	0.038600408
99	0x3d822cc6	0.06356196
100	0x3e052839	0.13003625
101	0x3ce210ab	0.027595839
102	0x3caed628	0.021342352
103	0x3db60eba	0.088895276
104	0xbd08a7f3	-0.033363294
105	0xbd9730c1	-0.07382346
106	0xbc8067ee	-0.015674558
107	0xbcb5014c	-0.022095345
108	0xbcb2bec8	-0.021819487
109	0x3d9f4785	0.07777313
110	0xbce72e8d	-0.02822044
111	0xbc02c153	-0.007980662
112	0xbd5aef3f	-0.05345082
113	0xbb3d474e	-0.0028881612
114	0x3d47443c	0.048649058
115	0x3dbb0549	0.091318674
116	0x3d91db23	0.07121875
117	0x3b9aeb25	0.0047277384
118	0xbd4ee740	-0.050513506
119	0x3d068377	0.03284022
120	0x3bb350f4	0.005472297
121	0x3c78ad91	0.0151781
122	0x3d8d16b8	0.06889099
123	0x3daf252a	0.0855201
124	0xbb857895	-0.0040732124
125	0x3e05de97	0.13073193
126	0x3d1134cd	0.035450745
127	0x3c2039e7	0.00977943
128	0x3de0dab9	0.10979218
129	0x3c3b406c	0.011428934
130	0x3db0bd56	0.08629863
131	0x3d76e42d	0.0602762
132	0x3d401387	0.046893623
133	0x3c50693b	0.012720401
134	0xbba2641a	-0.0049557807
135	0xbdbca992	-0.092120305
136	0xbc7c5769	-0.0154017
137	0xbce2535d	-0.027627641
138	0x3d0a1331	0.03370971
139	0x3d6b04f1	0.05737776
140	0x37ab102d	2.0392321e-05
141	0x3d53466d	0.051580835
142	0x3d2198db	0.039452415
143	0x3d3c8665	0.046026606
144	0xbd05f880	-0.03270769
145	0x3d0ff117	0.03514203
146	0x3cc72ebe	0.02431428
147	0x3d841a08	0.064502776
148	0x3cb4481d	0.022007043
149	0x3da912db	0.082555495
150	0x3ceebf06	0.029143821
151	0x3d7abb58	0.06121382
152	0x3c97fae1	0.018552246
153	0x3d430ce4	0.047619715
154	0x3c4483d4	0.011994321
155	0x3df4b206	0.11948018
156	0x3d10de96	0.035368524
157	0x3d04433a	0.032290675
158	0x3d807f7e	0.06274317
159	0xbd28f361	-0.04124773
160	0xbcab6a13	-0.020924604
161	0x3ddcba0f	0.10777675
162	0x3c9eb75a	0.019374538
163	0x3c9d58ab	0.01920732
164	0xbb4c88bc	-0.003120943
165	0x3c36e740	0.011163533
166	0xbc21921b	-0.009861494
167	0x3d30dd77	0.043179955
168	0x3da884b2	0.082284346
169	0x3c3dbee7	0.011581159
170	0x3d3b2a87	0.045694854
171	0x3c9538fa	0.018215645
172	0x3d6ba801	0.057533268
173	0xbc848642	-0.0161773
174	0x3d24d18f	0.040238913
175	0x3d8f10b1	0.069856055
176	0x3ccf6591	0.025316985
177	0x3dc54409	0.09632117
178	0x3d4173af	0.047229465
179	0x3ced1718	0.028941676
180	0x3d976413	0.073921345
181	0xbc8ef8bf	-0.017452596
182	0x3ca45caa	0.020063717
183	0x3c5ea749	0.013589689
184	0x3d389e69	0.045072947
185	0x3c9c0d32	0.01904926
186	0xbd7f11ac	-0.062272713
187	0xbd38296d	-0.04496138
188	0x3d46febc	0.048582777
189	0x3e3743e6	0.17896995
190	0x3d13b90a	0.03606514
191	0x3d68b19a	0.05681
192	0x3d31a347	0.043368604
193	0x3ddaa3fd	0.106758095
194	0x3d9e6912	0.07734884
195	0xbd518e32	-0.051161
196	0xbd9108c3	-0.07081749
197	0x3d77e02e	0.06051653
198	0x3d2fa435	0.04288121
199	0xbd2770c9	-0.040879045
200	0x3cdd3e18	0.027007148
201	0x3d0f922f	0.03505152
202	0x3d748fc9	0.059707437
203	0x3e082dc6	0.13298711
204	0xbcf88ce8	-0.030340627
205	0x3db2a51f	0.087229006
206	0x3d6f1568	0.058370024
207	0x3d750d3e	0.05982708
208	0x3d3ca616	0.04605683
209	0xbd80658b	-0.06269368
210	0xbb41da5a	-0.002957961
211	0xbb1cec58	-0.0023944583
212	0x3d96d40d	0.07364664
213	0x3ddf9882	0.109177604
214	0x3c07d750	0.008291081
215	0xbdee1edc	-0.1162698
216	0x3d806e65	0.06271056
217	0x3da1e79c	0.07905504
218	0xbcce8c71	-0.025213452
219	0xbd1c37e9	-0.038139258
220	0x3caa5b3e	0.02079546
221	0x3c17a2ea	0.00925515
222	0x3d5de0a4	0.054169312
223	0x3d1070ba	0.035263754
224	0x3da8add6	0.082362816
225	0xbbe69aba	-0.007037488
226	0x3ce5529b	0.02799349
227	0xbdb7836d	-0.08960614
228	0x3d181974	0.03713365
229	0xbd28508f	-0.04109245
230	0x3d2e0ba5	0.042491574
231	0x3c37ded4	0.01122256
232	0x3d249df6	0.040189706
233	0xbb8fe8e2	-0.0043917755
234	0xbba20054	-0.004943887
235	0x3d5c2da4	0.053754464
236	0x3d375d37	0.04476663
237	0xbc3d9cf8	-0.011573069
238	0x3dd94bd9	0.1061017
239	0x3e175d9f	0.14781807
240	0x3cdb6f77	0.026786549
241	0x3d4e680e	0.050392203
242	0x3d093ff8	0.03350827
243	0x3b13e32f	0.0022565832
244	0x3dadf446	0.08493857
245	0x3d36b3b5	0.044604976
246	0xbd8f8f04	-0.070097
247	0x3d664d31	0.05622596
248	0x39af0fee	0.0003339047
249	0xbc9dfbe0	-0.019285142
250	0x3cdd4375	0.027009705
251	0xbbfcf401	-0.007719517
252	0x3d2b211d	0.041779626
253	0xbac3d6a8	-0.0014941292
254	0x3d98838a	0.07446964
255	0x3c47e37e	0.012200234

cls_head.0.bias f4 [4]
0	0x3d35e9ab	0.044412296
1	0xbdd4dea0	-0.10394025
2	0x3cea6e4c	0.028617047
3	0x3e2ae35a	0.1668829
